data.pth (torch, 8511 bytes, 6 tensors)

l1.weight f4 [8, 115]
0.6044115 0.18442555 0.46175468 -0.27515304 -0.06343738 0.4955731 0.30806136 0.56423795
1.0977448 0.65900695 0.2506953 0.75925905 0.11542226 0.19865647 -0.14439481 0.23492907
0.5359361 -0.5551654 -0.4613432 0.81964153 -0.6582137 0.8465756 0.005366236 0.14285089
-0.9017418 -1.0349206 -1.1193182 -0.072934136 -0.5205213 -0.47417018 -0.56460905 -0.60911727
-0.21164279 -0.6603459 0.43303058 0.3454105 0.48844716 -0.24392009 0.32740667 -0.38598907
-0.49344823 0.55092114 -0.14866684 0.56263316 0.5316746 0.08996262 0.011116491 1.2411168
0.24288742 -0.17874219 0.5862346 -0.391927 -0.099288315 -0.07039317 0.41875842 0.14373906
-0.55711675 0.34448966 0.20841983 -0.62729144 -0.60819787 -0.21275479 1.0202438 -0.2700827
1.2772824 0.07780748 -0.04210732 -0.44423455 -0.10075375 -0.31758556 -0.3911839 -0.7407689
0.5435551 0.42440993 0.49499756 0.27573112 -0.9159594 -0.50479656 -0.8500928 -0.46665108
-0.51123685 -0.2171042 -0.808178 0.5380078 -0.090935335 -0.4554396 0.21929772 -0.486777
0.23987788 -0.21551323 0.017724782 1.145004 0.9104658 -0.78808063 -0.46148917 -0.81789696
-0.123171635 -0.03755511 1.0321465 -0.6499509 0.22093157 -0.029214451 -0.8475286 -0.09687589
-0.15420884 0.085569076 -0.53813505 0.3698938 -0.693682 0.68161345 -0.17558965 0.2398029
0.37852162 -0.49870032 0.7954324 0.8364916 -0.15830669 0.5717916 0.19434194 -0.38720456
-0.7918383 -0.05966925 -0.5898769 -0.38461152 0.6965208 0.335108 0.46156913 -0.047047716
0.39837414 -0.2133872 -0.03234495 1.3039113 -0.09757191 -0.16892697 0.94593674 -0.14581794
-0.5614443 0.17295286 0.33580056 -0.9320466 0.23471507 0.010206202 -0.7328508 0.1286998
0.7474156 -0.19699815 0.33421114 -0.17648992 0.8752463 0.034747567 0.32807532 1.1785846
0.68280035 0.48656458 0.32086632 0.26938576 -0.696974 -0.21046233 -0.6450356 -0.6318417
0.085291445 0.09968159 0.8721196 -0.04583891 -0.29827568 0.7993042 -0.82255685 -0.5188335
-0.38498303 1.1457002 -0.006609233 0.25144213 -0.67277664 0.17902204 0.40566558 0.72946125
-0.048226926 1.3232005 0.016056197 -0.5196705 -0.15456052 -0.77737206 0.7526204 -0.5500464
-0.44967794 0.33203256 -0.11000637 0.5408694 -0.12467533 -0.044414796 0.099760294 -0.43900695
0.17575276 -0.39714202 1.3646231 0.016129918 -0.2679322 0.1755069 -0.18715827 -0.5189593
1.1548471 -0.11760323 0.16444205 -0.05789657 0.5283256 0.70725924 -0.49566132 -1.0422361
-0.56146437 -0.1981938 0.147776 0.3483982 0.34665474 1.293373 0.3308641 -0.07770445
0.5554587 1.3135339 -0.48178923 -0.33031526 0.23231687 1.6762094 -0.12843287 0.42485818
0.95489615 0.12261368 -0.021233084 -0.78263164 0.1522828 0.18884803 0.410839 0.28992403
0.2293273 -0.31717852 -0.38145125 1.1895483 -0.0024371466 -0.35271427 0.83909905 0.39093027
-0.03206478 0.53938824 -0.002593308 0.17785569 -0.29191542 0.6443165 -0.58023876 -0.50490505
-0.53852725 -0.17466706 -0.64253205 0.78151727 0.0007771328 0.066100895 -0.2880459 0.8846138
00000000: b6ba 1a3f 0dda 3c3e 1c6b ec3e dce0 8cbe
00000010: 75eb 81bd c2bb fd3e 38ba 9d3e e671 103f
00000020: e782 8c3f aeb4 283f 225b 803e cd5e 423f
00000030: 8162 ec3d 9a6c 4b3e 3cdc 13be 3f91 703e
00000040: 1c33 093f 521f 0ebf 2d35 ecbe 07d4 513f
00000050: b180 28bf 2eb9 583f 40d7 af3b 8147 123e
00000060: 8dd8 66bf 4778 84bf d245 8fbf 7e5e 95bd
00000070: e240 05bf 6fc6 f2be 388a 10bf 1cef 1bbf
00000080: e3b8 58be 6e0c 29bf 2fb6 dd3e a5d9 b03e
00000090: bf15 fa3e 30c6 79be d9a1 a73e 5ca0 c5be
000000a0: 3fa5 fcbe 2b09 0d3f 1f3c 18be ba08 103f
000000b0: d41b 083f 523e b83d f121 363c eadc 9e3f
000000c0: 7bb7 783e 3108 37be 7913 163f a8aa c8be
000000d0: ac57 cbbd 4b2a 90bd 8167 d63e 5530 133e
000000e0: 349f 0ebf f360 b03e 026c 553e 2c96 20bf
000000f0: dbb2 1bbf 64dc 59be 5997 823f 4848 8abe
00000100: fd7d a33f 8759 9f3d ba78 2cbd b672 e3be
00000110: fb57 cebd 939a a2be 4249 c8be 08a3 3dbf
00000120: 6d26 0b3f 424c d93e 5270 fd3e a12c 8d3e
00000130: 517c 6abf 593a 01bf af9f 59bf e4ec eebe
00000140: 6be0 02bf 9050 5ebe c1e4 4ebf e1ba 093f
00000150: 4e3c babd 612f e9be 958f 603e d63a f9be
00000160: 8ca2 753e 80af 5cbe 9033 913c 7e8f 923f
00000170: 4914 693f a7bf 49bf 4f48 ecbe b261 51bf
00000180: 6941 fcbd 63d3 19bd 601d 843f 2f63 26bf
00000190: e33b 623e 2553 efbc a2f7 58bf de66 c6bd
000001a0: ece8 1dbe d73e af3d 38c3 09bf b862 bd3e
000001b0: 2595 31bf 387e 2e3f c6cd 33be e48e 753e
000001c0: 96cd c13e a655 ffbe 75a1 4b3f 5024 563f
000001d0: 261b 22be ef60 123f 9301 473e ad3f c6be
000001e0: eab5 4abf be67 74bd 2c02 17bf cdeb c4be
000001f0: 304f 323f 4793 ab3e ca52 ec3e 1bb5 40bd
00000200: b2f7 cb3e 2d82 5abe 237c 04bd 91e6 a63f
00000210: c8d3 c7bd 31fb 2cbe e928 723f 4c51 15be
00000220: d0ba 0fbf 8e1a 313e 0dee ab3e 9b9a 6ebf
00000230: 2659 703e ea37 273c 1c9c 3bbf e1c9 033e
00000240: a156 3f3f e2b9 49be b91d ab3e c6b9 34be
00000250: 2410 603f 7753 0e3d 7df9 a73e dcdb 963f
00000260: 01cc 2e3f fe1e f93e 9748 a43e eeec 893e
00000270: e36c 32bf 7083 57be 0e21 25bf 61c0 21bf
00000280: 48ad ae3d dd25 cc3d 3b43 5f3f 95c1 3bbd
00000290: 97b7 98be 339f 4c3f 1693 52bf 46d2 04bf
000002a0: 7f1c c5be 4ea6 923f 4492 d8bb 06bd 803e
000002b0: 173b 2cbf 8e51 373e 66b3 cf3e f9bd 3a3f
000002c0: 9989 45bd a25e a93f 4988 833c 2009 05bf
000002d0: 1d45 1ebe db01 47bf bbab 403f d7cf 0cbf
000002e0: 303c e6be 2c00 aa3e 054b e1bd 6b76 0a3f
000002f0: c855 ffbd 4aec 35bd 204f cc3d 85c5 e0be
00000300: 88f8 333e 3356 cbbe f8ab ae3f e422 843c
00000310: 692e 89be 15b8 333e 6ba6 3fbe 84da 04bf
00000320: 08d2 933f f6d9 f0bd 7f63 283e f424 6dbd
00000330: 5940 073f f10e 353f 52c7 fdbe fe67 85bf
00000340: 21bc 0fbf 51f3 4abe 9752 173e 4061 b23e
00000350: bb7c b13e 3f8d a53f 0567 a93e 8323 9fbd
00000360: 8b32 0e3f e121 a83f 14ad f6be 151f a9be
00000370: 79e4 6d3e 088e d63f e883 03be 0387 d93e
00000380: 1374 743f e21c fb3d 01f1 adbc 8c5a 48bf
00000390: 06f0 1b3e 6161 413e 7d59 d23e ec70 943e
000003a0: c7d4 6a3e 3965 a2be 944d c3be 1e43 983f
000003b0: 89b8 1fbb f796 b4be 32cf 563f 0328 c83e
000003c0: 5c56 03bd 5915 0a3f 7df4 29bb cd1f 363e
000003d0: f075 95be edf1 243f 878a 14bf 7541 01bf
000003e0: ecdc 09bf ecdb 32be fb7c 24bf 8411 483f
000003f0: 80b8 4b3a e85f 873d c17a 93be 0d76 623f

l1.bias f4 [8]
1.119455 1.1112041 0.93368953 1.176431 1.6982849 1.149381 0.7895641 0.8713027
00000000: 4d4a 8f3f f03b 8e3f 4706 6f3f 4a95 963f
00000010: 6661 d93f eb1e 933f df20 4a3f b20d 5f3f

l2.weight f4 [8, 8]
-1.4439647 -0.3705124 -1.1458893 1.7189329 1.1072595 2.0636759 -0.7284381 2.032125
-1.3887717 -0.76798105 1.3065568 1.8716706 1.7287683 -1.071685 0.4098044 -0.14804298
2.6699295 -0.8680296 1.4340698 1.6111349 -0.22475196 0.4587411 1.9171863 0.36218822
0.90019464 0.3316192 0.4546854 -1.3321449 1.4929976 1.9472758 -1.7316047 0.13724029
0.22980312 1.2644436 -1.2582088 1.7069744 1.1346096 -0.54943526 1.7172663 -1.1499763
1.4250321 1.7007838 1.4448295 1.25331 -0.6208101 -0.4120599 -1.0394042 1.5023602
-0.025340965 1.7134504 2.1161726 -0.9639335 0.38795567 -0.86248624 1.0245165 1.710963
0.6707031 2.1530144 -0.8178297 -1.2207601 1.6120397 1.3425326 1.7998557 -1.1253963
00000000: d6d3 b8bf cdb3 bdbe 80ac 92bf fe05 dc3f
00000010: aeba 8d3f 4413 0440 eb7a 3abf 560e 0240
00000020: 45c3 b1bf 689a 44bf 413d a73f e792 ef3f
00000030: 4848 dd3f f92c 89bf e2d1 d13e 9498 17be
00000040: 20e0 2a40 3037 5ebf 998f b73f ab39 ce3f
00000050: 6125 66be 1de0 ea3e 5c66 f53f bc70 b93e
00000060: 2873 663f fec9 a93e 86cc e83e b983 aabf
00000070: 8c1a bf3f 5540 f93f 39a5 ddbf b888 0c3e
00000080: 8251 6b3e 4ad9 a13f fc0c a1bf 237e da3f
00000090: e33a 913f caa7 0cbf 62cf db3f 6c32 93bf
000000a0: 7467 b63f 49b3 d93f 2cf0 b83f 766c a03f
000000b0: 69ed 1ebf 84f9 d2be 320b 85bf 574d c03f
000000c0: db97 cfbc 5852 db3f 5f6f 0740 59c4 76bf
000000d0: 20a2 c63e e6cb 5cbf 5b23 833f d600 db3f
000000e0: 33b3 2b3f fdca 0940 4a5d 51bf de41 9cbf
000000f0: 5157 ce3f 1cd8 ab3f ac61 e63f fc0c 90bf

l2.bias f4 [8]
0.7645305 0.9253745 0.42757452 1.1177561 0.017874934 0.39755157 0.3135586 0.4937108
00000000: 45b8 433f 58e5 6c3f 0ceb da3e a212 8f3f
00000010: 746e 923c e18b cb3e c18a a03e a9c7 fc3e

l3.weight f4 [23, 8]
-0.052350294 -2.217863 0.27868736 0.1660934 -2.3198476 0.32533062 -1.0608889 -0.21942878
-0.19321264 0.06934678 0.4111577 -0.28345785 -2.015283 0.36027628 -0.29926783 -2.5328262
1.0678347 0.22724889 -1.558718 -0.12340909 -0.6518819 0.16172256 -0.532194 -1.8986976
-0.04959504 -0.7198269 -1.1308099 0.28139347 -0.12156967 0.31052074 -0.9279253 0.16504148
-3.2020762 -1.4984827 -0.079000585 0.31774217 0.19870949 -0.40267703 -0.030984893 0.5734722
-1.3737054 0.30809805 0.22034816 -0.017223265 -1.1695765 -0.5995899 0.2620952 0.07856364
-0.6222559 0.3576755 -0.62376374 -0.78853136 0.7876169 -2.650498 -0.69082284 0.5332669
1.1478556 -0.8918177 -0.8940844 0.7857497 -2.1529355 -1.4216416 -2.0201905 0.02412836
-0.39362046 -1.8031014 -0.027668329 -0.0007097647 0.2101104 -2.103144 -0.91458523 0.77493864
-2.2646718 -1.2450553 0.57738644 -2.1154072 0.021739613 0.00023295336 0.65202785 -0.23447147
-1.5666262 -0.14777887 0.6048607 -1.0654997 0.6495836 -0.5088995 -1.4476568 0.124866754
-2.7881615 0.6314874 0.71235967 -1.0659975 -0.16441059 0.06476149 0.0019930787 -1.8404908
-0.787239 0.6937224 -1.093047 0.3109708 -2.7195349 0.12016724 1.117448 -1.4963105
-1.6813322 -1.5436182 0.28952324 -0.42059645 -1.9769089 0.92066157 0.32928902 -0.9770464
0.4140988 0.57746667 -0.6186166 -2.471405 0.58662254 -0.5672018 -1.8249369 -0.35216978
-0.015867293 -0.30865937 -0.7254305 -1.9472568 -0.09373054 0.22175151 0.27351993 -0.1099226
-1.9073707 0.5597794 -0.47553182 -1.5945702 0.22365326 -0.74194795 0.34863344 0.22344735
-0.3136355 0.77841145 0.30375603 -1.6820476 0.20691188 -0.10263756 -0.7894159 -2.8488014
0.17520796 -1.7504568 -2.1569476 0.34464934 -2.7092583 0.54630506 0.6668076 0.04808782
0.2468876 -2.1158817 -2.9913747 0.4854258 0.026318323 -0.9795831 -0.7190616 0.8993081
-1.5744951 0.7012757 -2.111419 0.114163935 -0.080039024 -0.24217416 -0.070375964 0.69601774
0.41186544 0.05758615 -0.36287034 0.10430081 0.042001195 -0.79688317 -3.4036155 -0.34771824
0.44994387 0.55858487 -2.1431777 0.44842553 0.001578209 -2.0431864 -1.1813364 0.15468036
00000000: 436d 56bd 78f1 0dc0 1cb0 8e3e 6314 2a3e
00000010: 6278 14c0 bc91 a63e 35cb 87bf f0b1 60be
00000020: 89d9 45be af05 8e3d 4383 d23e 6321 91be
00000030: 66fa 00c0 2276 b83e a239 99be d319 22c0
00000040: cfae 883f efb3 683e 1284 c7bf e8bd fcbd
00000050: bbe1 26bf 999a 253e de3d 08bf 8608 f3bf
00000060: 2b24 4bbd 9346 38bf 61be 90bf ce12 903e
00000070: 85f9 f8bd 93fc 9e3e 838c 6dbf a200 293e
00000080: d1ee 4cc0 48ce bfbf 0fcb a1bd 1aaf a23e
00000090: 807a 4b3e af2b cebe 08d4 fdbc 13cf 123f
000000a0: 94d5 afbf 07bf 9d3e f3a2 613e ce17 8dbc
000000b0: afb4 95bf b97e 19bf 5831 863e f9e5 a03d
000000c0: 2a4c 1fbf 3e21 b73e fbae 1fbf 31dd 49bf
000000d0: 43a1 493f c2a1 29c0 c4d9 30bf 2e84 083f
000000e0: efec 923f 2a4e 64bf b7e2 64bf e426 493f
000000f0: b2c9 09c0 5af8 b5bf cd4a 01c0 d7a8 c53c
00000100: 9f88 c9be 07cc e6bf b1a8 e2bc 810f 3aba
00000110: 2e27 573e e999 06c0 4222 6abf 6162 463f
00000120: 62f0 10c0 f95d 9fbf 99cf 133f d562 07c0
00000130: 4617 b23c f144 7439 4ceb 263f 4a19 70be
00000140: 3587 c8bf 5853 17be 27d8 1a3f 4b62 88bf
00000150: 1c4b 263f 3d47 02bf d14c b9bf 24ba ff3d
00000160: 3d71 32c0 29a9 213f 345d 363f 9b72 88bf
00000170: 405b 28be aca1 843d 509e 023b 3495 ebbf
00000180: 7f88 49bf cb97 313f f7e8 8bbf 9137 9f3e
00000190: dc0c 2ec0 3e1a f63d 8908 8f3f 1a87 bfbf
000001a0: e535 d7bf 4895 c5bf 643c 943e 6b58 d7be
000001b0: 5a0b fdbf 7ab0 6b3f 9298 a83e b61f 7abf
000001c0: c204 d43e dbd4 133f a85d 1ebf 802b 1ec0
000001d0: e52c 163f 2334 11bf 8897 e9bf 994f b4be
000001e0: 20fc 81bc 9a08 9ebe d0b5 39bf b63f f9bf
000001f0: ccf5 bfbd d412 633e ce0a 8c3e 1a1f e1bd
00000200: b924 f4bf b44d 0f3f e878 f3be e01a ccbf
00000210: 5c05 653e 4df0 3dbf 1580 b23e 62cf 643e
00000220: d594 a0be f945 473f e985 9b3e 564d d7bf
00000230: b5e0 533e a433 d2bd 2917 4abf c352 36c0
00000240: b769 333e f80e e0bf 6e0b 0ac0 e175 b03e
00000250: 7d64 2dc0 a6da 0b3f e7b3 2a3f bcf7 443d
00000260: 1ad0 7c3e 9b6a 07c0 af72 3fc0 bb89 f83e
00000270: 8699 d73c f5c5 7abf 6c14 38bf 0e39 663f
00000280: 0e89 c9bf ce86 333f 7d21 07c0 c8ce e93d
00000290: 80eb a3bd 81fc 77be 4621 90bd 382e 323f
000002a0: 07e0 d23e 74df 6b3d 24ca b9be aa9b d53d
000002b0: 7209 2c3d 8900 4cbf d6d4 59c0 2008 b2be
000002c0: 0b5f e63e 6bff 0e3f d329 09c0 0898 e53e
000002d0: e8db ce3a 91c3 02c0 0836 97bf 8764 1e3e

l3.bias f4 [23]
0.17151457 0.15709256 0.32707655 -0.23341957 0.018033538 -0.13847683 -0.40857247 0.26532644
0.033805437 -0.33390367 -0.01962886 0.23038091 0.038366903 -0.13130403 0.018564835 -0.27393165
-0.5994771 0.28304937 -0.21723887 -0.3092832 -0.06242065 -0.04916757 -0.3355642
00000000: 84a1 2f3e dfdc 203e 9476 a73e 8a05 6fbe
00000010: 12bb 933c dfcc 0dbe 6930 d1be ded8 873e
00000020: 9277 0a3d 6cf5 aabe b4cc a0bc f9e8 6b3e
00000030: 9d26 1d3d 9074 06be 4815 983c c540 8cbe
00000040: 5577 19bf d9eb 903e de73 5ebe 5e5a 9ebe
00000050: ccac 7fbd ef63 49bd 12cf abbe
